=====================================================================================================================================================================
Layer (type (var_name))                  Input Shape               Output Shape              Kernel Shape              Param #                   Mult-Adds
=====================================================================================================================================================================
ResNet (ResNet)                          [126, 3, 32, 32]          [126, 10]                 --                        --                        --
├─Sequential (conv1)                     [126, 3, 32, 32]          [126, 32, 32, 32]         --                        --                        --
│    └─CopyConcat (0)                    [126, 3, 32, 32]          [126, 3, 32, 32]          --                        --                        --
│    └─Conv2d (1)                        [126, 3, 32, 32]          [126, 32, 32, 32]         [3, 3]                    864                       111,476,736
├─BatchNorm2d (bn1)                      [126, 32, 32, 32]         [126, 32, 32, 32]         --                        64                        8,064
├─ReLU (relu)                            [126, 32, 32, 32]         [126, 32, 32, 32]         --                        --                        --
├─Sequential (layer1)                    [126, 32, 32, 32]         [126, 32, 32, 32]         --                        --                        --
│    └─BasicBlock (0)                    [126, 32, 32, 32]         [126, 32, 32, 32]         --                        --                        --
│    │    └─Conv2d (conv1)               [126, 32, 32, 32]         [126, 32, 32, 32]         [3, 3]                    9,216                     1,189,085,184
│    │    └─BatchNorm2d (bn1)            [126, 32, 32, 32]         [126, 32, 32, 32]         --                        64                        8,064
│    │    └─ReLU (relu)                  [126, 32, 32, 32]         [126, 32, 32, 32]         --                        --                        --
│    │    └─Conv2d (conv2)               [126, 32, 32, 32]         [126, 32, 32, 32]         [3, 3]                    9,216                     1,189,085,184
│    │    └─BatchNorm2d (bn2)            [126, 32, 32, 32]         [126, 32, 32, 32]         --                        64                        8,064
│    │    └─ReLU (relu)                  [126, 32, 32, 32]         [126, 32, 32, 32]         --                        --                        --
│    └─BasicBlock (1)                    [126, 32, 32, 32]         [126, 32, 32, 32]         --                        --                        --
│    │    └─Conv2d (conv1)               [126, 32, 32, 32]         [126, 32, 32, 32]         [3, 3]                    9,216                     1,189,085,184
│    │    └─BatchNorm2d (bn1)            [126, 32, 32, 32]         [126, 32, 32, 32]         --                        64                        8,064
│    │    └─ReLU (relu)                  [126, 32, 32, 32]         [126, 32, 32, 32]         --                        --                        --
│    │    └─Conv2d (conv2)               [126, 32, 32, 32]         [126, 32, 32, 32]         [3, 3]                    9,216                     1,189,085,184
│    │    └─BatchNorm2d (bn2)            [126, 32, 32, 32]         [126, 32, 32, 32]         --                        64                        8,064
│    │    └─ReLU (relu)                  [126, 32, 32, 32]         [126, 32, 32, 32]         --                        --                        --
├─Sequential (layer2)                    [126, 32, 32, 32]         [126, 64, 16, 16]         --                        --                        --
│    └─BasicBlock (0)                    [126, 32, 32, 32]         [126, 64, 16, 16]         --                        --                        --
│    │    └─Conv2d (conv1)               [126, 32, 32, 32]         [126, 64, 16, 16]         [3, 3]                    18,432                    594,542,592
│    │    └─BatchNorm2d (bn1)            [126, 64, 16, 16]         [126, 64, 16, 16]         --                        128                       16,128
│    │    └─ReLU (relu)                  [126, 64, 16, 16]         [126, 64, 16, 16]         --                        --                        --
│    │    └─Conv2d (conv2)               [126, 64, 16, 16]         [126, 64, 16, 16]         [3, 3]                    36,864                    1,189,085,184
│    │    └─BatchNorm2d (bn2)            [126, 64, 16, 16]         [126, 64, 16, 16]         --                        128                       16,128
│    │    └─Sequential (downsample)      [126, 32, 32, 32]         [126, 64, 16, 16]         --                        2,176                     66,076,416
│    │    └─ReLU (relu)                  [126, 64, 16, 16]         [126, 64, 16, 16]         --                        --                        --
│    └─BasicBlock (1)                    [126, 64, 16, 16]         [126, 64, 16, 16]         --                        --                        --
│    │    └─Conv2d (conv1)               [126, 64, 16, 16]         [126, 64, 16, 16]         [3, 3]                    36,864                    1,189,085,184
│    │    └─BatchNorm2d (bn1)            [126, 64, 16, 16]         [126, 64, 16, 16]         --                        128                       16,128
│    │    └─ReLU (relu)                  [126, 64, 16, 16]         [126, 64, 16, 16]         --                        --                        --
│    │    └─Conv2d (conv2)               [126, 64, 16, 16]         [126, 64, 16, 16]         [3, 3]                    36,864                    1,189,085,184
│    │    └─BatchNorm2d (bn2)            [126, 64, 16, 16]         [126, 64, 16, 16]         --                        128                       16,128
│    │    └─ReLU (relu)                  [126, 64, 16, 16]         [126, 64, 16, 16]         --                        --                        --
├─Sequential (layer3)                    [126, 64, 16, 16]         [126, 128, 8, 8]          --                        --                        --
│    └─BasicBlock (0)                    [126, 64, 16, 16]         [126, 128, 8, 8]          --                        --                        --
│    │    └─Conv2d (conv1)               [126, 64, 16, 16]         [126, 128, 8, 8]          [3, 3]                    73,728                    594,542,592
│    │    └─BatchNorm2d (bn1)            [126, 128, 8, 8]          [126, 128, 8, 8]          --                        256                       32,256
│    │    └─ReLU (relu)                  [126, 128, 8, 8]          [126, 128, 8, 8]          --                        --                        --
│    │    └─Conv2d (conv2)               [126, 128, 8, 8]          [126, 128, 8, 8]          [3, 3]                    147,456                   1,189,085,184
│    │    └─BatchNorm2d (bn2)            [126, 128, 8, 8]          [126, 128, 8, 8]          --                        256                       32,256
│    │    └─Sequential (downsample)      [126, 64, 16, 16]         [126, 128, 8, 8]          --                        8,448                     66,092,544
│    │    └─ReLU (relu)                  [126, 128, 8, 8]          [126, 128, 8, 8]          --                        --                        --
│    └─BasicBlock (1)                    [126, 128, 8, 8]          [126, 128, 8, 8]          --                        --                        --
│    │    └─Conv2d (conv1)               [126, 128, 8, 8]          [126, 128, 8, 8]          [3, 3]                    147,456                   1,189,085,184
│    │    └─BatchNorm2d (bn1)            [126, 128, 8, 8]          [126, 128, 8, 8]          --                        256                       32,256
│    │    └─ReLU (relu)                  [126, 128, 8, 8]          [126, 128, 8, 8]          --                        --                        --
│    │    └─Conv2d (conv2)               [126, 128, 8, 8]          [126, 128, 8, 8]          [3, 3]                    147,456                   1,189,085,184
│    │    └─BatchNorm2d (bn2)            [126, 128, 8, 8]          [126, 128, 8, 8]          --                        256                       32,256
│    │    └─ReLU (relu)                  [126, 128, 8, 8]          [126, 128, 8, 8]          --                        --                        --
├─Sequential (layer4)                    [126, 128, 8, 8]          [126, 256, 4, 4]          --                        --                        --
│    └─BasicBlock (0)                    [126, 128, 8, 8]          [126, 256, 4, 4]          --                        --                        --
│    │    └─Conv2d (conv1)               [126, 128, 8, 8]          [126, 256, 4, 4]          [3, 3]                    294,912                   594,542,592
│    │    └─BatchNorm2d (bn1)            [126, 256, 4, 4]          [126, 256, 4, 4]          --                        512                       64,512
│    │    └─ReLU (relu)                  [126, 256, 4, 4]          [126, 256, 4, 4]          --                        --                        --
│    │    └─Conv2d (conv2)               [126, 256, 4, 4]          [126, 256, 4, 4]          [3, 3]                    589,824                   1,189,085,184
│    │    └─BatchNorm2d (bn2)            [126, 256, 4, 4]          [126, 256, 4, 4]          --                        512                       64,512
│    │    └─Sequential (downsample)      [126, 128, 8, 8]          [126, 256, 4, 4]          --                        33,280                    66,124,800
│    │    └─ReLU (relu)                  [126, 256, 4, 4]          [126, 256, 4, 4]          --                        --                        --
│    └─BasicBlock (1)                    [126, 256, 4, 4]          [126, 256, 4, 4]          --                        --                        --
│    │    └─Conv2d (conv1)               [126, 256, 4, 4]          [126, 256, 4, 4]          [3, 3]                    589,824                   1,189,085,184
│    │    └─BatchNorm2d (bn1)            [126, 256, 4, 4]          [126, 256, 4, 4]          --                        512                       64,512
│    │    └─ReLU (relu)                  [126, 256, 4, 4]          [126, 256, 4, 4]          --                        --                        --
│    │    └─Conv2d (conv2)               [126, 256, 4, 4]          [126, 256, 4, 4]          [3, 3]                    589,824                   1,189,085,184
│    │    └─BatchNorm2d (bn2)            [126, 256, 4, 4]          [126, 256, 4, 4]          --                        512                       64,512
│    │    └─ReLU (relu)                  [126, 256, 4, 4]          [126, 256, 4, 4]          --                        --                        --
├─AdaptiveAvgPool2d (avgpool)            [126, 256, 4, 4]          [126, 256, 1, 1]          --                        --                        --
├─Sequential (fc)                        [126, 256]                [126, 10]                 --                        --                        --
│    └─View (0)                          [126, 256]                [126, 256, 1]             --                        --                        --
│    └─Conv1d (1)                        [126, 256, 1]             [126, 10, 1]              [1]                       2,570                     323,820
│    └─View (2)                          [126, 10, 1]              [126, 10]                 --                        --                        --
│    └─SplitMerge (3)                    [126, 10]                 [126, 10]                 --                        --                        --
=====================================================================================================================================================================
Total params: 2,797,610
Trainable params: 2,797,610
Non-trainable params: 0
Total mult-adds (Units.GIGABYTES): 17.55
=====================================================================================================================================================================
…
