=====================================================================================================================================================================
Layer (type (var_name))                  Kernel Shape              Input Shape               Output Shape              Param #                   Mult-Adds
=====================================================================================================================================================================
ResNet (ResNet)                          --                        [128, 3, 256, 256]        [128, 1000]               --                        --
├─Conv2d (conv1)                         [7, 7]                    [128, 3, 256, 256]        [128, 64, 128, 128]       9,408                     19,730,006,016
├─BatchNorm2d (bn1)                      --                        [128, 64, 128, 128]       [128, 64, 128, 128]       128                       16,384
├─ReLU (relu)                            --                        [128, 64, 128, 128]       [128, 64, 128, 128]       --                        --
├─MaxPool2d (maxpool)                    3                         [128, 64, 128, 128]       [128, 64, 64, 64]         --                        --
├─Sequential (layer1)                    --                        [128, 64, 64, 64]         [128, 64, 64, 64]         --                        --
│    └─BasicBlock (0)                    --                        [128, 64, 64, 64]         [128, 64, 64, 64]         --                        --
│    │    └─Conv2d (conv1)               [3, 3]                    [128, 64, 64, 64]         [128, 64, 64, 64]         36,864                    19,327,352,832
│    │    └─BatchNorm2d (bn1)            --                        [128, 64, 64, 64]         [128, 64, 64, 64]         128                       16,384
│    │    └─ReLU (relu)                  --                        [128, 64, 64, 64]         [128, 64, 64, 64]         --                        --
│    │    └─Conv2d (conv2)               [3, 3]                    [128, 64, 64, 64]         [128, 64, 64, 64]         36,864                    19,327,352,832
│    │    └─BatchNorm2d (bn2)            --                        [128, 64, 64, 64]         [128, 64, 64, 64]         128                       16,384
│    │    └─ReLU (relu)                  --                        [128, 64, 64, 64]         [128, 64, 64, 64]         --                        --
│    └─BasicBlock (1)                    --                        [128, 64, 64, 64]         [128, 64, 64, 64]         --                        --
│    │    └─Conv2d (conv1)               [3, 3]                    [128, 64, 64, 64]         [128, 64, 64, 64]         36,864                    19,327,352,832
│    │    └─BatchNorm2d (bn1)            --                        [128, 64, 64, 64]         [128, 64, 64, 64]         128                       16,384
│    │    └─ReLU (relu)                  --                        [128, 64, 64, 64]         [128, 64, 64, 64]         --                        --
│    │    └─Conv2d (conv2)               [3, 3]                    [128, 64, 64, 64]         [128, 64, 64, 64]         36,864                    19,327,352,832
│    │    └─BatchNorm2d (bn2)            --                        [128, 64, 64, 64]         [128, 64, 64, 64]         128                       16,384
│    │    └─ReLU (relu)                  --                        [128, 64, 64, 64]         [128, 64, 64, 64]         --                        --
├─Sequential (layer2)                    --                        [128, 64, 64, 64]         [128, 128, 32, 32]        --                        --
│    └─BasicBlock (0)                    --                        [128, 64, 64, 64]         [128, 128, 32, 32]        --                        --
│    │    └─Conv2d (conv1)               [3, 3]                    [128, 64, 64, 64]         [128, 128, 32, 32]        73,728                    9,663,676,416
│    │    └─BatchNorm2d (bn1)            --                        [128, 128, 32, 32]        [128, 128, 32, 32]        256                       32,768
│    │    └─ReLU (relu)                  --                        [128, 128, 32, 32]        [128, 128, 32, 32]        --                        --
│    │    └─Conv2d (conv2)               [3, 3]                    [128, 128, 32, 32]        [128, 128, 32, 32]        147,456                   19,327,352,832
│    │    └─BatchNorm2d (bn2)            --                        [128, 128, 32, 32]        [128, 128, 32, 32]        256                       32,768
│    │    └─Sequential (downsample)      --                        [128, 64, 64, 64]         [128, 128, 32, 32]        8,448                     1,073,774,592
│    │    └─ReLU (relu)                  --                        [128, 128, 32, 32]        [128, 128, 32, 32]        --                        --
│    └─BasicBlock (1)                    --                        [128, 128, 32, 32]        [128, 128, 32, 32]        --                        --
│    │    └─Conv2d (conv1)               [3, 3]                    [128, 128, 32, 32]        [128, 128, 32, 32]        147,456                   19,327,352,832
│    │    └─BatchNorm2d (bn1)            --                        [128, 128, 32, 32]        [128, 128, 32, 32]        256                       32,768
│    │    └─ReLU (relu)                  --                        [128, 128, 32, 32]        [128, 128, 32, 32]        --                        --
│    │    └─Conv2d (conv2)               [3, 3]                    [128, 128, 32, 32]        [128, 128, 32, 32]        147,456                   19,327,352,832
│    │    └─BatchNorm2d (bn2)            --                        [128, 128, 32, 32]        [128, 128, 32, 32]        256                       32,768
│    │    └─ReLU (relu)                  --                        [128, 128, 32, 32]        [128, 128, 32, 32]        --                        --
├─Sequential (layer3)                    --                        [128, 128, 32, 32]        [128, 256, 16, 16]        --                        --
│    └─BasicBlock (0)                    --                        [128, 128, 32, 32]        [128, 256, 16, 16]        --                        --
│    │    └─Conv2d (conv1)               [3, 3]                    [128, 128, 32, 32]        [128, 256, 16, 16]        294,912                   9,663,676,416
│    │    └─BatchNorm2d (bn1)            --                        [128, 256, 16, 16]        [128, 256, 16, 16]        512                       65,536
│    │    └─ReLU (relu)                  --                        [128, 256, 16, 16]        [128, 256, 16, 16]        --                        --
│    │    └─Conv2d (conv2)               [3, 3]                    [128, 256, 16, 16]        [128, 256, 16, 16]        589,824                   19,327,352,832
│    │    └─BatchNorm2d (bn2)            --                        [128, 256, 16, 16]        [128, 256, 16, 16]        512                       65,536
│    │    └─Sequential (downsample)      --                        [128, 128, 32, 32]        [128, 256, 16, 16]        33,280                    1,073,807,360
│    │    └─ReLU (relu)                  --                        [128, 256, 16, 16]        [128, 256, 16, 16]        --                        --
│    └─BasicBlock (1)                    --                        [128, 256, 16, 16]        [128, 256, 16, 16]        --                        --
│    │    └─Conv2d (conv1)               [3, 3]                    [128, 256, 16, 16]        [128, 256, 16, 16]        589,824                   19,327,352,832
│    │    └─BatchNorm2d (bn1)            --                        [128, 256, 16, 16]        [128, 256, 16, 16]        512                       65,536
│    │    └─ReLU (relu)                  --                        [128, 256, 16, 16]        [128, 256, 16, 16]        --                        --
│    │    └─Conv2d (conv2)               [3, 3]                    [128, 256, 16, 16]        [128, 256, 16, 16]        589,824                   19,327,352,832
│    │    └─BatchNorm2d (bn2)            --                        [128, 256, 16, 16]        [128, 256, 16, 16]        512                       65,536
│    │    └─ReLU (relu)                  --                        [128, 256, 16, 16]        [128, 256, 16, 16]        --                        --
├─Sequential (layer4)                    --                        [128, 256, 16, 16]        [128, 512, 8, 8]          --                        --
│    └─BasicBlock (0)                    --                        [128, 256, 16, 16]        [128, 512, 8, 8]          --                        --
│    │    └─Conv2d (conv1)               [3, 3]                    [128, 256, 16, 16]        [128, 512, 8, 8]          1,179,648                 9,663,676,416
│    │    └─BatchNorm2d (bn1)            --                        [128, 512, 8, 8]          [128, 512, 8, 8]          1,024                     131,072
│    │    └─ReLU (relu)                  --                        [128, 512, 8, 8]          [128, 512, 8, 8]          --                        --
│    │    └─Conv2d (conv2)               [3, 3]                    [128, 512, 8, 8]          [128, 512, 8, 8]          2,359,296                 19,327,352,832
│    │    └─BatchNorm2d (bn2)            --                        [128, 512, 8, 8]          [128, 512, 8, 8]          1,024                     131,072
│    │    └─Sequential (downsample)      --                        [128, 256, 16, 16]        [128, 512, 8, 8]          132,096                   1,073,872,896
│    │    └─ReLU (relu)                  --                        [128, 512, 8, 8]          [128, 512, 8, 8]          --                        --
│    └─BasicBlock (1)                    --                        [128, 512, 8, 8]          [128, 512, 8, 8]          --                        --
│    │    └─Conv2d (conv1)               [3, 3]                    [128, 512, 8, 8]          [128, 512, 8, 8]          2,359,296                 19,327,352,832
│    │    └─BatchNorm2d (bn1)            --                        [128, 512, 8, 8]          [128, 512, 8, 8]          1,024                     131,072
│    │    └─ReLU (relu)                  --                        [128, 512, 8, 8]          [128, 512, 8, 8]          --                        --
│    │    └─Conv2d (conv2)               [3, 3]                    [128, 512, 8, 8]          [128, 512, 8, 8]          2,359,296                 19,327,352,832
│    │    └─BatchNorm2d (bn2)            --                        [128, 512, 8, 8]          [128, 512, 8, 8]          1,024                     131,072
│    │    └─ReLU (relu)                  --                        [128, 512, 8, 8]          [128, 512, 8, 8]          --                        --
├─AdaptiveAvgPool2d (avgpool)            --                        [128, 512, 8, 8]          [128, 512, 1, 1]          --                        --
├─Linear (fc)                            --                        [128, 512]                [128, 1000]               513,000                   65,664,000
=====================================================================================================================================================================
Total params: 11,689,512
Trainable params: 11,689,512
Non-trainable params: 0
Total mult-adds (Units.GIGABYTES): 303.26
=====================================================================================================================================================================
…
