=====================================================================================================================================================================
Layer (type (var_name))                  Input Shape               Output Shape              Kernel Shape              Param #                   Mult-Adds
=====================================================================================================================================================================
ResNet (ResNet)                          [128, 3, 32, 32]          [128, 37]                 --                        --                        --
├─Sequential (conv1)                     [128, 3, 32, 32]          [128, 64, 32, 32]         --                        --                        --
│    └─CopyConcat (0)                    [128, 3, 32, 32]          [128, 12, 32, 32]         --                        --                        --
│    └─Conv2d (1)                        [128, 12, 32, 32]         [128, 64, 32, 32]         [3, 3]                    1,728                     226,492,416
├─BatchNorm2d (bn1)                      [128, 64, 32, 32]         [128, 64, 32, 32]         --                        128                       16,384
├─ReLU (relu)                            [128, 64, 32, 32]         [128, 64, 32, 32]         --                        --                        --
├─Sequential (layer1)                    [128, 64, 32, 32]         [128, 64, 32, 32]         --                        --                        --
│    └─BasicBlock (0)                    [128, 64, 32, 32]         [128, 64, 32, 32]         --                        --                        --
│    │    └─Conv2d (conv1)               [128, 64, 32, 32]         [128, 64, 32, 32]         [3, 3]                    9,216                     1,207,959,552
│    │    └─BatchNorm2d (bn1)            [128, 64, 32, 32]         [128, 64, 32, 32]         --                        128                       16,384
│    │    └─ReLU (relu)                  [128, 64, 32, 32]         [128, 64, 32, 32]         --                        --                        --
│    │    └─Conv2d (conv2)               [128, 64, 32, 32]         [128, 64, 32, 32]         [3, 3]                    9,216                     1,207,959,552
│    │    └─BatchNorm2d (bn2)            [128, 64, 32, 32]         [128, 64, 32, 32]         --                        128                       16,384
│    │    └─ReLU (relu)                  [128, 64, 32, 32]         [128, 64, 32, 32]         --                        --                        --
│    └─BasicBlock (1)                    [128, 64, 32, 32]         [128, 64, 32, 32]         --                        --                        --
│    │    └─Conv2d (conv1)               [128, 64, 32, 32]         [128, 64, 32, 32]         [3, 3]                    9,216                     1,207,959,552
│    │    └─BatchNorm2d (bn1)            [128, 64, 32, 32]         [128, 64, 32, 32]         --                        128                       16,384
│    │    └─ReLU (relu)                  [128, 64, 32, 32]         [128, 64, 32, 32]         --                        --                        --
│    │    └─Conv2d (conv2)               [128, 64, 32, 32]         [128, 64, 32, 32]         [3, 3]                    9,216                     1,207,959,552
│    │    └─BatchNorm2d (bn2)            [128, 64, 32, 32]         [128, 64, 32, 32]         --                        128                       16,384
│    │    └─ReLU (relu)                  [128, 64, 32, 32]         [128, 64, 32, 32]         --                        --                        --
├─Sequential (layer2)                    [128, 64, 32, 32]         [128, 128, 16, 16]        --                        --                        --
│    └─BasicBlock (0)                    [128, 64, 32, 32]         [128, 128, 16, 16]        --                        --                        --
│    │    └─Conv2d (conv1)               [128, 64, 32, 32]         [128, 128, 16, 16]        [3, 3]                    18,432                    603,979,776
│    │    └─BatchNorm2d (bn1)            [128, 128, 16, 16]        [128, 128, 16, 16]        --                        256                       32,768
│    │    └─ReLU (relu)                  [128, 128, 16, 16]        [128, 128, 16, 16]        --                        --                        --
│    │    └─Conv2d (conv2)               [128, 128, 16, 16]        [128, 128, 16, 16]        [3, 3]                    36,864                    1,207,959,552
│    │    └─BatchNorm2d (bn2)            [128, 128, 16, 16]        [128, 128, 16, 16]        --                        256                       32,768
│    │    └─Sequential (downsample)      [128, 64, 32, 32]         [128, 128, 16, 16]        --                        2,304                     67,141,632
│    │    └─ReLU (relu)                  [128, 128, 16, 16]        [128, 128, 16, 16]        --                        --                        --
│    └─BasicBlock (1)                    [128, 128, 16, 16]        [128, 128, 16, 16]        --                        --                        --
│    │    └─Conv2d (conv1)               [128, 128, 16, 16]        [128, 128, 16, 16]        [3, 3]                    36,864                    1,207,959,552
│    │    └─BatchNorm2d (bn1)            [128, 128, 16, 16]        [128, 128, 16, 16]        --                        256                       32,768
│    │    └─ReLU (relu)                  [128, 128, 16, 16]        [128, 128, 16, 16]        --                        --                        --
│    │    └─Conv2d (conv2)               [128, 128, 16, 16]        [128, 128, 16, 16]        [3, 3]                    36,864                    1,207,959,552
│    │    └─BatchNorm2d (bn2)            [128, 128, 16, 16]        [128, 128, 16, 16]        --                        256                       32,768
│    │    └─ReLU (relu)                  [128, 128, 16, 16]        [128, 128, 16, 16]        --                        --                        --
├─Sequential (layer3)                    [128, 128, 16, 16]        [128, 256, 8, 8]          --                        --                        --
│    └─BasicBlock (0)                    [128, 128, 16, 16]        [128, 256, 8, 8]          --                        --                        --
│    │    └─Conv2d (conv1)               [128, 128, 16, 16]        [128, 256, 8, 8]          [3, 3]                    73,728                    603,979,776
│    │    └─BatchNorm2d (bn1)            [128, 256, 8, 8]          [128, 256, 8, 8]          --                        512                       65,536
│    │    └─ReLU (relu)                  [128, 256, 8, 8]          [128, 256, 8, 8]          --                        --                        --
│    │    └─Conv2d (conv2)               [128, 256, 8, 8]          [128, 256, 8, 8]          [3, 3]                    147,456                   1,207,959,552
│    │    └─BatchNorm2d (bn2)            [128, 256, 8, 8]          [128, 256, 8, 8]          --                        512                       65,536
│    │    └─Sequential (downsample)      [128, 128, 16, 16]        [128, 256, 8, 8]          --                        8,704                     67,174,400
│    │    └─ReLU (relu)                  [128, 256, 8, 8]          [128, 256, 8, 8]          --                        --                        --
│    └─BasicBlock (1)                    [128, 256, 8, 8]          [128, 256, 8, 8]          --                        --                        --
│    │    └─Conv2d (conv1)               [128, 256, 8, 8]          [128, 256, 8, 8]          [3, 3]                    147,456                   1,207,959,552
│    │    └─BatchNorm2d (bn1)            [128, 256, 8, 8]          [128, 256, 8, 8]          --                        512                       65,536
│    │    └─ReLU (relu)                  [128, 256, 8, 8]          [128, 256, 8, 8]          --                        --                        --
│    │    └─Conv2d (conv2)               [128, 256, 8, 8]          [128, 256, 8, 8]          [3, 3]                    147,456                   1,207,959,552
│    │    └─BatchNorm2d (bn2)            [128, 256, 8, 8]          [128, 256, 8, 8]          --                        512                       65,536
│    │    └─ReLU (relu)                  [128, 256, 8, 8]          [128, 256, 8, 8]          --                        --                        --
├─Sequential (layer4)                    [128, 256, 8, 8]          [128, 512, 4, 4]          --                        --                        --
│    └─BasicBlock (0)                    [128, 256, 8, 8]          [128, 512, 4, 4]          --                        --                        --
│    │    └─Conv2d (conv1)               [128, 256, 8, 8]          [128, 512, 4, 4]          [3, 3]                    294,912                   603,979,776
│    │    └─BatchNorm2d (bn1)            [128, 512, 4, 4]          [128, 512, 4, 4]          --                        1,024                     131,072
│    │    └─ReLU (relu)                  [128, 512, 4, 4]          [128, 512, 4, 4]          --                        --                        --
│    │    └─Conv2d (conv2)               [128, 512, 4, 4]          [128, 512, 4, 4]          [3, 3]                    589,824                   1,207,959,552
│    │    └─BatchNorm2d (bn2)            [128, 512, 4, 4]          [128, 512, 4, 4]          --                        1,024                     131,072
│    │    └─Sequential (downsample)      [128, 256, 8, 8]          [128, 512, 4, 4]          --                        33,792                    67,239,936
│    │    └─ReLU (relu)                  [128, 512, 4, 4]          [128, 512, 4, 4]          --                        --                        --
│    └─BasicBlock (1)                    [128, 512, 4, 4]          [128, 512, 4, 4]          --                        --                        --
│    │    └─Conv2d (conv1)               [128, 512, 4, 4]          [128, 512, 4, 4]          [3, 3]                    589,824                   1,207,959,552
│    │    └─BatchNorm2d (bn1)            [128, 512, 4, 4]          [128, 512, 4, 4]          --                        1,024                     131,072
│    │    └─ReLU (relu)                  [128, 512, 4, 4]          [128, 512, 4, 4]          --                        --                        --
│    │    └─Conv2d (conv2)               [128, 512, 4, 4]          [128, 512, 4, 4]          [3, 3]                    589,824                   1,207,959,552
│    │    └─BatchNorm2d (bn2)            [128, 512, 4, 4]          [128, 512, 4, 4]          --                        1,024                     131,072
│    │    └─ReLU (relu)                  [128, 512, 4, 4]          [128, 512, 4, 4]          --                        --                        --
├─AdaptiveAvgPool2d (avgpool)            [128, 512, 4, 4]          [128, 512, 1, 1]          --                        --                        --
├─Sequential (fc)                        [128, 512]                [128, 37]                 --                        --                        --
│    └─View (0)                          [128, 512]                [128, 512, 1]             --                        --                        --
│    └─Conv1d (1)                        [128, 512, 1]             [128, 148, 1]             [1]                       19,092                    2,443,776
│    └─View (2)                          [128, 148, 1]             [128, 148]                --                        --                        --
│    └─SplitMean (3)                     [128, 148]                [128, 37]                 --                        --                        --
=====================================================================================================================================================================
Total params: 2,819,796
Trainable params: 2,819,796
Non-trainable params: 0
Total mult-adds (Units.GIGABYTES): 17.95
=====================================================================================================================================================================
…
