=====================================================================================================================================================================
Layer (type (var_name))                  Input Shape               Output Shape              Kernel Shape              Param #                   Mult-Adds
=====================================================================================================================================================================
AutoEncoder (AutoEncoder)                [32, 3, 64, 64]           [32, 3, 64, 64]           --                        --                        --
├─Sequential (encoder)                   [32, 3, 64, 64]           [32, 8, 4, 4]             --                        --                        --
│    └─Conv2d (0)                        [32, 3, 64, 64]           [32, 64, 64, 64]          [3, 3]                    1,792                     234,881,024
│    └─BatchNorm2d (1)                   [32, 64, 64, 64]          [32, 64, 64, 64]          --                        128                       4,096
│    └─MaxPool2d (2)                     [32, 64, 64, 64]          [32, 64, 32, 32]          2                         --                        --
│    └─Conv2d (3)                        [32, 64, 32, 32]          [32, 128, 32, 32]         [3, 3]                    73,856                    2,420,113,408
│    └─BatchNorm2d (4)                   [32, 128, 32, 32]         [32, 128, 32, 32]         --                        256                       8,192
│    └─MaxPool2d (5)                     [32, 128, 32, 32]         [32, 128, 16, 16]         2                         --                        --
│    └─Conv2d (6)                        [32, 128, 16, 16]         [32, 256, 16, 16]         [3, 3]                    295,168                   2,418,016,256
│    └─BatchNorm2d (7)                   [32, 256, 16, 16]         [32, 256, 16, 16]         --                        512                       16,384
│    └─MaxPool2d (8)                     [32, 256, 16, 16]         [32, 256, 8, 8]           2                         --                        --
│    └─Conv2d (9)                        [32, 256, 8, 8]           [32, 256, 8, 8]           [3, 3]                    590,080                   1,208,483,840
│    └─BatchNorm2d (10)                  [32, 256, 8, 8]           [32, 256, 8, 8]           --                        512                       16,384
│    └─MaxPool2d (11)                    [32, 256, 8, 8]           [32, 256, 4, 4]           2                         --                        --
│    └─Conv2d (12)                       [32, 256, 4, 4]           [32, 8, 4, 4]             [1, 1]                    2,056                     1,052,672
├─Sequential (decoder)                   [32, 8, 4, 4]             [32, 3, 64, 64]           --                        --                        --
│    └─ConvTranspose2d (0)               [32, 8, 4, 4]             [32, 128, 8, 8]           [2, 2]                    4,224                     8,650,752
│    └─BatchNorm2d (1)                   [32, 128, 8, 8]           [32, 128, 8, 8]           --                        256                       8,192
│    └─ConvTranspose2d (2)               [32, 128, 8, 8]           [32, 256, 16, 16]         [2, 2]                    131,328                   1,075,838,976
│    └─BatchNorm2d (3)                   [32, 256, 16, 16]         [32, 256, 16, 16]         --                        512                       16,384
│    └─ConvTranspose2d (4)               [32, 256, 16, 16]         [32, 512, 32, 32]         [2, 2]                    524,800                   17,196,646,400
│    └─BatchNorm2d (5)                   [32, 512, 32, 32]         [32, 512, 32, 32]         --                        1,024                     32,768
│    └─ConvTranspose2d (6)               [32, 512, 32, 32]         [32, 512, 64, 64]         [2, 2]                    1,049,088                 137,506,062,336
│    └─BatchNorm2d (7)                   [32, 512, 64, 64]         [32, 512, 64, 64]         --                        1,024                     32,768
│    └─Conv2d (8)                        [32, 512, 64, 64]         [32, 3, 64, 64]           [1, 1]                    1,539                     201,719,808
=====================================================================================================================================================================
Total params: 2,678,155
Trainable params: 2,678,155
Non-trainable params: 0
Total mult-adds (Units.GIGABYTES): 162.27
=====================================================================================================================================================================
…
