=====================================================================================================================================================================
Layer (type (var_name))                  Input Shape               Output Shape              Kernel Shape              Param #                   Mult-Adds
=====================================================================================================================================================================
AutoEncoder (AutoEncoder)                [32, 3, 32, 32]           [32, 3, 32, 32]           --                        --                        --
├─Sequential (encoder)                   [32, 3, 32, 32]           [32, 8, 2, 2]             --                        --                        --
│    └─Conv2d (0)                        [32, 3, 32, 32]           [32, 64, 32, 32]          [3, 3]                    1,792                     58,720,256
│    └─BatchNorm2d (1)                   [32, 64, 32, 32]          [32, 64, 32, 32]          --                        128                       4,096
│    └─MaxPool2d (2)                     [32, 64, 32, 32]          [32, 64, 16, 16]          2                         --                        --
│    └─Conv2d (3)                        [32, 64, 16, 16]          [32, 128, 16, 16]         [3, 3]                    73,856                    605,028,352
│    └─BatchNorm2d (4)                   [32, 128, 16, 16]         [32, 128, 16, 16]         --                        256                       8,192
│    └─MaxPool2d (5)                     [32, 128, 16, 16]         [32, 128, 8, 8]           2                         --                        --
│    └─Conv2d (6)                        [32, 128, 8, 8]           [32, 256, 8, 8]           [3, 3]                    295,168                   604,504,064
│    └─BatchNorm2d (7)                   [32, 256, 8, 8]           [32, 256, 8, 8]           --                        512                       16,384
│    └─MaxPool2d (8)                     [32, 256, 8, 8]           [32, 256, 4, 4]           2                         --                        --
│    └─Conv2d (9)                        [32, 256, 4, 4]           [32, 256, 4, 4]           [3, 3]                    590,080                   302,120,960
│    └─BatchNorm2d (10)                  [32, 256, 4, 4]           [32, 256, 4, 4]           --                        512                       16,384
│    └─MaxPool2d (11)                    [32, 256, 4, 4]           [32, 256, 2, 2]           2                         --                        --
│    └─Conv2d (12)                       [32, 256, 2, 2]           [32, 8, 2, 2]             [1, 1]                    2,056                     263,168
├─Sequential (decoder)                   [32, 8, 2, 2]             [32, 3, 32, 32]           --                        --                        --
│    └─ConvTranspose2d (0)               [32, 8, 2, 2]             [32, 128, 4, 4]           [2, 2]                    4,224                     2,162,688
│    └─BatchNorm2d (1)                   [32, 128, 4, 4]           [32, 128, 4, 4]           --                        256                       8,192
│    └─ConvTranspose2d (2)               [32, 128, 4, 4]           [32, 256, 8, 8]           [2, 2]                    131,328                   268,959,744
│    └─BatchNorm2d (3)                   [32, 256, 8, 8]           [32, 256, 8, 8]           --                        512                       16,384
│    └─ConvTranspose2d (4)               [32, 256, 8, 8]           [32, 512, 16, 16]         [2, 2]                    524,800                   4,299,161,600
│    └─BatchNorm2d (5)                   [32, 512, 16, 16]         [32, 512, 16, 16]         --                        1,024                     32,768
│    └─ConvTranspose2d (6)               [32, 512, 16, 16]         [32, 512, 32, 32]         [2, 2]                    1,049,088                 34,376,515,584
│    └─BatchNorm2d (7)                   [32, 512, 32, 32]         [32, 512, 32, 32]         --                        1,024                     32,768
│    └─Conv2d (8)                        [32, 512, 32, 32]         [32, 3, 32, 32]           [1, 1]                    1,539                     50,429,952
=====================================================================================================================================================================
Total params: 2,678,155
Trainable params: 2,678,155
Non-trainable params: 0
Total mult-adds (Units.GIGABYTES): 40.57
=====================================================================================================================================================================
…
