=====================================================================================================================================================================
Layer (type (var_name))                  Input Shape               Output Shape              Kernel Shape              Param #                   Mult-Adds
=====================================================================================================================================================================
ResNet (ResNet)                          [3, 3, 32, 32]            [3, 10]                   --                        --                        --
├─Sequential (conv1)                     [3, 3, 32, 32]            [3, 128, 32, 32]          --                        --                        --
│    └─CopyConcat (0)                    [3, 3, 32, 32]            [3, 48, 32, 32]           --                        --                        --
│    └─Conv2d (1)                        [3, 48, 32, 32]           [3, 128, 32, 32]          [3, 3]                    3,456                     10,616,832
├─BatchNorm2d (bn1)                      [3, 128, 32, 32]          [3, 128, 32, 32]          --                        256                       768
├─ReLU (relu)                            [3, 128, 32, 32]          [3, 128, 32, 32]          --                        --                        --
├─Sequential (layer1)                    [3, 128, 32, 32]          [3, 128, 32, 32]          --                        --                        --
│    └─BasicBlock (0)                    [3, 128, 32, 32]          [3, 128, 32, 32]          --                        --                        --
│    │    └─Conv2d (conv1)               [3, 128, 32, 32]          [3, 128, 32, 32]          [3, 3]                    9,216                     28,311,552
│    │    └─BatchNorm2d (bn1)            [3, 128, 32, 32]          [3, 128, 32, 32]          --                        256                       768
│    │    └─ReLU (relu)                  [3, 128, 32, 32]          [3, 128, 32, 32]          --                        --                        --
│    │    └─Conv2d (conv2)               [3, 128, 32, 32]          [3, 128, 32, 32]          [3, 3]                    9,216                     28,311,552
│    │    └─BatchNorm2d (bn2)            [3, 128, 32, 32]          [3, 128, 32, 32]          --                        256                       768
│    │    └─ReLU (relu)                  [3, 128, 32, 32]          [3, 128, 32, 32]          --                        --                        --
│    └─BasicBlock (1)                    [3, 128, 32, 32]          [3, 128, 32, 32]          --                        --                        --
│    │    └─Conv2d (conv1)               [3, 128, 32, 32]          [3, 128, 32, 32]          [3, 3]                    9,216                     28,311,552
│    │    └─BatchNorm2d (bn1)            [3, 128, 32, 32]          [3, 128, 32, 32]          --                        256                       768
│    │    └─ReLU (relu)                  [3, 128, 32, 32]          [3, 128, 32, 32]          --                        --                        --
│    │    └─Conv2d (conv2)               [3, 128, 32, 32]          [3, 128, 32, 32]          [3, 3]                    9,216                     28,311,552
│    │    └─BatchNorm2d (bn2)            [3, 128, 32, 32]          [3, 128, 32, 32]          --                        256                       768
│    │    └─ReLU (relu)                  [3, 128, 32, 32]          [3, 128, 32, 32]          --                        --                        --
├─Sequential (layer2)                    [3, 128, 32, 32]          [3, 256, 16, 16]          --                        --                        --
│    └─BasicBlock (0)                    [3, 128, 32, 32]          [3, 256, 16, 16]          --                        --                        --
│    │    └─Conv2d (conv1)               [3, 128, 32, 32]          [3, 256, 16, 16]          [3, 3]                    18,432                    14,155,776
│    │    └─BatchNorm2d (bn1)            [3, 256, 16, 16]          [3, 256, 16, 16]          --                        512                       1,536
│    │    └─ReLU (relu)                  [3, 256, 16, 16]          [3, 256, 16, 16]          --                        --                        --
│    │    └─Conv2d (conv2)               [3, 256, 16, 16]          [3, 256, 16, 16]          [3, 3]                    36,864                    28,311,552
│    │    └─BatchNorm2d (bn2)            [3, 256, 16, 16]          [3, 256, 16, 16]          --                        512                       1,536
│    │    └─Sequential (downsample)      [3, 128, 32, 32]          [3, 256, 16, 16]          --                        2,560                     1,574,400
│    │    └─ReLU (relu)                  [3, 256, 16, 16]          [3, 256, 16, 16]          --                        --                        --
│    └─BasicBlock (1)                    [3, 256, 16, 16]          [3, 256, 16, 16]          --                        --                        --
│    │    └─Conv2d (conv1)               [3, 256, 16, 16]          [3, 256, 16, 16]          [3, 3]                    36,864                    28,311,552
│    │    └─BatchNorm2d (bn1)            [3, 256, 16, 16]          [3, 256, 16, 16]          --                        512                       1,536
│    │    └─ReLU (relu)                  [3, 256, 16, 16]          [3, 256, 16, 16]          --                        --                        --
│    │    └─Conv2d (conv2)               [3, 256, 16, 16]          [3, 256, 16, 16]          [3, 3]                    36,864                    28,311,552
│    │    └─BatchNorm2d (bn2)            [3, 256, 16, 16]          [3, 256, 16, 16]          --                        512                       1,536
│    │    └─ReLU (relu)                  [3, 256, 16, 16]          [3, 256, 16, 16]          --                        --                        --
├─Sequential (layer3)                    [3, 256, 16, 16]          [3, 512, 8, 8]            --                        --                        --
│    └─BasicBlock (0)                    [3, 256, 16, 16]          [3, 512, 8, 8]            --                        --                        --
│    │    └─Conv2d (conv1)               [3, 256, 16, 16]          [3, 512, 8, 8]            [3, 3]                    73,728                    14,155,776
│    │    └─BatchNorm2d (bn1)            [3, 512, 8, 8]            [3, 512, 8, 8]            --                        1,024                     3,072
│    │    └─ReLU (relu)                  [3, 512, 8, 8]            [3, 512, 8, 8]            --                        --                        --
│    │    └─Conv2d (conv2)               [3, 512, 8, 8]            [3, 512, 8, 8]            [3, 3]                    147,456                   28,311,552
│    │    └─BatchNorm2d (bn2)            [3, 512, 8, 8]            [3, 512, 8, 8]            --                        1,024                     3,072
│    │    └─Sequential (downsample)      [3, 256, 16, 16]          [3, 512, 8, 8]            --                        9,216                     1,575,936
│    │    └─ReLU (relu)                  [3, 512, 8, 8]            [3, 512, 8, 8]            --                        --                        --
│    └─BasicBlock (1)                    [3, 512, 8, 8]            [3, 512, 8, 8]            --                        --                        --
│    │    └─Conv2d (conv1)               [3, 512, 8, 8]            [3, 512, 8, 8]            [3, 3]                    147,456                   28,311,552
│    │    └─BatchNorm2d (bn1)            [3, 512, 8, 8]            [3, 512, 8, 8]            --                        1,024                     3,072
│    │    └─ReLU (relu)                  [3, 512, 8, 8]            [3, 512, 8, 8]            --                        --                        --
│    │    └─Conv2d (conv2)               [3, 512, 8, 8]            [3, 512, 8, 8]            [3, 3]                    147,456                   28,311,552
│    │    └─BatchNorm2d (bn2)            [3, 512, 8, 8]            [3, 512, 8, 8]            --                        1,024                     3,072
│    │    └─ReLU (relu)                  [3, 512, 8, 8]            [3, 512, 8, 8]            --                        --                        --
├─Sequential (layer4)                    [3, 512, 8, 8]            [3, 1024, 4, 4]           --                        --                        --
│    └─BasicBlock (0)                    [3, 512, 8, 8]            [3, 1024, 4, 4]           --                        --                        --
│    │    └─Conv2d (conv1)               [3, 512, 8, 8]            [3, 1024, 4, 4]           [3, 3]                    294,912                   14,155,776
│    │    └─BatchNorm2d (bn1)            [3, 1024, 4, 4]           [3, 1024, 4, 4]           --                        2,048                     6,144
│    │    └─ReLU (relu)                  [3, 1024, 4, 4]           [3, 1024, 4, 4]           --                        --                        --
│    │    └─Conv2d (conv2)               [3, 1024, 4, 4]           [3, 1024, 4, 4]           [3, 3]                    589,824                   28,311,552
│    │    └─BatchNorm2d (bn2)            [3, 1024, 4, 4]           [3, 1024, 4, 4]           --                        2,048                     6,144
│    │    └─Sequential (downsample)      [3, 512, 8, 8]            [3, 1024, 4, 4]           --                        34,816                    1,579,008
│    │    └─ReLU (relu)                  [3, 1024, 4, 4]           [3, 1024, 4, 4]           --                        --                        --
│    └─BasicBlock (1)                    [3, 1024, 4, 4]           [3, 1024, 4, 4]           --                        --                        --
│    │    └─Conv2d (conv1)               [3, 1024, 4, 4]           [3, 1024, 4, 4]           [3, 3]                    589,824                   28,311,552
│    │    └─BatchNorm2d (bn1)            [3, 1024, 4, 4]           [3, 1024, 4, 4]           --                        2,048                     6,144
│    │    └─ReLU (relu)                  [3, 1024, 4, 4]           [3, 1024, 4, 4]           --                        --                        --
│    │    └─Conv2d (conv2)               [3, 1024, 4, 4]           [3, 1024, 4, 4]           [3, 3]                    589,824                   28,311,552
│    │    └─BatchNorm2d (bn2)            [3, 1024, 4, 4]           [3, 1024, 4, 4]           --                        2,048                     6,144
│    │    └─ReLU (relu)                  [3, 1024, 4, 4]           [3, 1024, 4, 4]           --                        --                        --
├─AdaptiveAvgPool2d (avgpool)            [3, 1024, 4, 4]           [3, 1024, 1, 1]           --                        --                        --
├─Sequential (fc)                        [3, 1024]                 [3, 10]                   --                        --                        --
│    └─View (0)                          [3, 1024]                 [3, 1024, 1]              --                        --                        --
│    └─Conv1d (1)                        [3, 1024, 1]              [3, 160, 1]               [1]                       10,400                    31,200
│    └─View (2)                          [3, 160, 1]               [3, 160]                  --                        --                        --
│    └─SplitMean (3)                     [3, 160]                  [3, 10]                   --                        --                        --
=====================================================================================================================================================================
Total params: 2,822,432
Trainable params: 2,822,432
Non-trainable params: 0
Total mult-adds (Units.MEGABYTES): 425.94
=====================================================================================================================================================================
…
