=====================================================================================================================================================================
Layer (type (var_name))                  Input Shape               Output Shape              Kernel Shape              Param #                   Mult-Adds
=====================================================================================================================================================================
AutoEncoder (AutoEncoder)                [5, 3, 64, 64]            [5, 3, 64, 64]            --                        --                        --
├─Sequential (encoder)                   [5, 3, 64, 64]            [5, 8, 4, 4]              --                        --                        --
│    └─Conv2d (0)                        [5, 3, 64, 64]            [5, 64, 64, 64]           [3, 3]                    1,792                     36,700,160
│    └─BatchNorm2d (1)                   [5, 64, 64, 64]           [5, 64, 64, 64]           --                        128                       640
│    └─MaxPool2d (2)                     [5, 64, 64, 64]           [5, 64, 32, 32]           2                         --                        --
│    └─Conv2d (3)                        [5, 64, 32, 32]           [5, 128, 32, 32]          [3, 3]                    73,856                    378,142,720
│    └─BatchNorm2d (4)                   [5, 128, 32, 32]          [5, 128, 32, 32]          --                        256                       1,280
│    └─MaxPool2d (5)                     [5, 128, 32, 32]          [5, 128, 16, 16]          2                         --                        --
│    └─Conv2d (6)                        [5, 128, 16, 16]          [5, 256, 16, 16]          [3, 3]                    295,168                   377,815,040
│    └─BatchNorm2d (7)                   [5, 256, 16, 16]          [5, 256, 16, 16]          --                        512                       2,560
│    └─MaxPool2d (8)                     [5, 256, 16, 16]          [5, 256, 8, 8]            2                         --                        --
│    └─Conv2d (9)                        [5, 256, 8, 8]            [5, 256, 8, 8]            [3, 3]                    590,080                   188,825,600
│    └─BatchNorm2d (10)                  [5, 256, 8, 8]            [5, 256, 8, 8]            --                        512                       2,560
│    └─MaxPool2d (11)                    [5, 256, 8, 8]            [5, 256, 4, 4]            2                         --                        --
│    └─Conv2d (12)                       [5, 256, 4, 4]            [5, 8, 4, 4]              [1, 1]                    2,056                     164,480
├─Sequential (decoder)                   [5, 8, 4, 4]              [5, 3, 64, 64]            --                        --                        --
│    └─ConvTranspose2d (0)               [5, 8, 4, 4]              [5, 128, 8, 8]            [2, 2]                    4,224                     1,351,680
│    └─BatchNorm2d (1)                   [5, 128, 8, 8]            [5, 128, 8, 8]            --                        256                       1,280
│    └─ConvTranspose2d (2)               [5, 128, 8, 8]            [5, 256, 16, 16]          [2, 2]                    131,328                   168,099,840
│    └─BatchNorm2d (3)                   [5, 256, 16, 16]          [5, 256, 16, 16]          --                        512                       2,560
│    └─ConvTranspose2d (4)               [5, 256, 16, 16]          [5, 512, 32, 32]          [2, 2]                    524,800                   2,686,976,000
│    └─BatchNorm2d (5)                   [5, 512, 32, 32]          [5, 512, 32, 32]          --                        1,024                     5,120
│    └─ConvTranspose2d (6)               [5, 512, 32, 32]          [5, 512, 64, 64]          [2, 2]                    1,049,088                 21,485,322,240
│    └─BatchNorm2d (7)                   [5, 512, 64, 64]          [5, 512, 64, 64]          --                        1,024                     5,120
│    └─Conv2d (8)                        [5, 512, 64, 64]          [5, 3, 64, 64]            [1, 1]                    1,539                     31,518,720
=====================================================================================================================================================================
Total params: 2,678,155
Trainable params: 2,678,155
Non-trainable params: 0
Total mult-adds (Units.GIGABYTES): 25.35
=====================================================================================================================================================================
…
