=====================================================================================================================================================================
Layer (type (var_name))                  Input Shape               Output Shape              Kernel Shape              Param #                   Mult-Adds
=====================================================================================================================================================================
ResNet (ResNet)                          [128, 3, 96, 96]          [128, 10]                 --                        --                        --
├─Sequential (conv1)                     [128, 3, 96, 96]          [128, 128, 96, 96]        --                        --                        --
│    └─CopyConcat (0)                    [128, 3, 96, 96]          [128, 48, 96, 96]         --                        --                        --
│    └─Conv2d (1)                        [128, 48, 96, 96]         [128, 128, 96, 96]        [3, 3]                    3,456                     4,076,863,488
├─BatchNorm2d (bn1)                      [128, 128, 96, 96]        [128, 128, 96, 96]        --                        256                       32,768
├─ReLU (relu)                            [128, 128, 96, 96]        [128, 128, 96, 96]        --                        --                        --
├─Sequential (layer1)                    [128, 128, 96, 96]        [128, 128, 96, 96]        --                        --                        --
│    └─BasicBlock (0)                    [128, 128, 96, 96]        [128, 128, 96, 96]        --                        --                        --
│    │    └─Conv2d (conv1)               [128, 128, 96, 96]        [128, 128, 96, 96]        [3, 3]                    9,216                     10,871,635,968
│    │    └─BatchNorm2d (bn1)            [128, 128, 96, 96]        [128, 128, 96, 96]        --                        256                       32,768
│    │    └─ReLU (relu)                  [128, 128, 96, 96]        [128, 128, 96, 96]        --                        --                        --
│    │    └─Conv2d (conv2)               [128, 128, 96, 96]        [128, 128, 96, 96]        [3, 3]                    9,216                     10,871,635,968
│    │    └─BatchNorm2d (bn2)            [128, 128, 96, 96]        [128, 128, 96, 96]        --                        256                       32,768
│    │    └─ReLU (relu)                  [128, 128, 96, 96]        [128, 128, 96, 96]        --                        --                        --
│    └─BasicBlock (1)                    [128, 128, 96, 96]        [128, 128, 96, 96]        --                        --                        --
│    │    └─Conv2d (conv1)               [128, 128, 96, 96]        [128, 128, 96, 96]        [3, 3]                    9,216                     10,871,635,968
│    │    └─BatchNorm2d (bn1)            [128, 128, 96, 96]        [128, 128, 96, 96]        --                        256                       32,768
│    │    └─ReLU (relu)                  [128, 128, 96, 96]        [128, 128, 96, 96]        --                        --                        --
│    │    └─Conv2d (conv2)               [128, 128, 96, 96]        [128, 128, 96, 96]        [3, 3]                    9,216                     10,871,635,968
│    │    └─BatchNorm2d (bn2)            [128, 128, 96, 96]        [128, 128, 96, 96]        --                        256                       32,768
│    │    └─ReLU (relu)                  [128, 128, 96, 96]        [128, 128, 96, 96]        --                        --                        --
├─Sequential (layer2)                    [128, 128, 96, 96]        [128, 256, 48, 48]        --                        --                        --
│    └─BasicBlock (0)                    [128, 128, 96, 96]        [128, 256, 48, 48]        --                        --                        --
│    │    └─Conv2d (conv1)               [128, 128, 96, 96]        [128, 256, 48, 48]        [3, 3]                    18,432                    5,435,817,984
│    │    └─BatchNorm2d (bn1)            [128, 256, 48, 48]        [128, 256, 48, 48]        --                        512                       65,536
│    │    └─ReLU (relu)                  [128, 256, 48, 48]        [128, 256, 48, 48]        --                        --                        --
│    │    └─Conv2d (conv2)               [128, 256, 48, 48]        [128, 256, 48, 48]        [3, 3]                    36,864                    10,871,635,968
│    │    └─BatchNorm2d (bn2)            [128, 256, 48, 48]        [128, 256, 48, 48]        --                        512                       65,536
│    │    └─Sequential (downsample)      [128, 128, 96, 96]        [128, 256, 48, 48]        --                        2,560                     604,045,312
│    │    └─ReLU (relu)                  [128, 256, 48, 48]        [128, 256, 48, 48]        --                        --                        --
│    └─BasicBlock (1)                    [128, 256, 48, 48]        [128, 256, 48, 48]        --                        --                        --
│    │    └─Conv2d (conv1)               [128, 256, 48, 48]        [128, 256, 48, 48]        [3, 3]                    36,864                    10,871,635,968
│    │    └─BatchNorm2d (bn1)            [128, 256, 48, 48]        [128, 256, 48, 48]        --                        512                       65,536
│    │    └─ReLU (relu)                  [128, 256, 48, 48]        [128, 256, 48, 48]        --                        --                        --
│    │    └─Conv2d (conv2)               [128, 256, 48, 48]        [128, 256, 48, 48]        [3, 3]                    36,864                    10,871,635,968
│    │    └─BatchNorm2d (bn2)            [128, 256, 48, 48]        [128, 256, 48, 48]        --                        512                       65,536
│    │    └─ReLU (relu)                  [128, 256, 48, 48]        [128, 256, 48, 48]        --                        --                        --
├─Sequential (layer3)                    [128, 256, 48, 48]        [128, 512, 24, 24]        --                        --                        --
│    └─BasicBlock (0)                    [128, 256, 48, 48]        [128, 512, 24, 24]        --                        --                        --
│    │    └─Conv2d (conv1)               [128, 256, 48, 48]        [128, 512, 24, 24]        [3, 3]                    73,728                    5,435,817,984
│    │    └─BatchNorm2d (bn1)            [128, 512, 24, 24]        [128, 512, 24, 24]        --                        1,024                     131,072
│    │    └─ReLU (relu)                  [128, 512, 24, 24]        [128, 512, 24, 24]        --                        --                        --
│    │    └─Conv2d (conv2)               [128, 512, 24, 24]        [128, 512, 24, 24]        [3, 3]                    147,456                   10,871,635,968
│    │    └─BatchNorm2d (bn2)            [128, 512, 24, 24]        [128, 512, 24, 24]        --                        1,024                     131,072
│    │    └─Sequential (downsample)      [128, 256, 48, 48]        [128, 512, 24, 24]        --                        9,216                     604,110,848
│    │    └─ReLU (relu)                  [128, 512, 24, 24]        [128, 512, 24, 24]        --                        --                        --
│    └─BasicBlock (1)                    [128, 512, 24, 24]        [128, 512, 24, 24]        --                        --                        --
│    │    └─Conv2d (conv1)               [128, 512, 24, 24]        [128, 512, 24, 24]        [3, 3]                    147,456                   10,871,635,968
│    │    └─BatchNorm2d (bn1)            [128, 512, 24, 24]        [128, 512, 24, 24]        --                        1,024                     131,072
│    │    └─ReLU (relu)                  [128, 512, 24, 24]        [128, 512, 24, 24]        --                        --                        --
│    │    └─Conv2d (conv2)               [128, 512, 24, 24]        [128, 512, 24, 24]        [3, 3]                    147,456                   10,871,635,968
│    │    └─BatchNorm2d (bn2)            [128, 512, 24, 24]        [128, 512, 24, 24]        --                        1,024                     131,072
│    │    └─ReLU (relu)                  [128, 512, 24, 24]        [128, 512, 24, 24]        --                        --                        --
├─Sequential (layer4)                    [128, 512, 24, 24]        [128, 1024, 12, 12]       --                        --                        --
│    └─BasicBlock (0)                    [128, 512, 24, 24]        [128, 1024, 12, 12]       --                        --                        --
│    │    └─Conv2d (conv1)               [128, 512, 24, 24]        [128, 1024, 12, 12]       [3, 3]                    294,912                   5,435,817,984
│    │    └─BatchNorm2d (bn1)            [128, 1024, 12, 12]       [128, 1024, 12, 12]       --                        2,048                     262,144
│    │    └─ReLU (relu)                  [128, 1024, 12, 12]       [128, 1024, 12, 12]       --                        --                        --
│    │    └─Conv2d (conv2)               [128, 1024, 12, 12]       [128, 1024, 12, 12]       [3, 3]                    589,824                   10,871,635,968
│    │    └─BatchNorm2d (bn2)            [128, 1024, 12, 12]       [128, 1024, 12, 12]       --                        2,048                     262,144
│    │    └─Sequential (downsample)      [128, 512, 24, 24]        [128, 1024, 12, 12]       --                        34,816                    604,241,920
│    │    └─ReLU (relu)                  [128, 1024, 12, 12]       [128, 1024, 12, 12]       --                        --                        --
│    └─BasicBlock (1)                    [128, 1024, 12, 12]       [128, 1024, 12, 12]       --                        --                        --
│    │    └─Conv2d (conv1)               [128, 1024, 12, 12]       [128, 1024, 12, 12]       [3, 3]                    589,824                   10,871,635,968
│    │    └─BatchNorm2d (bn1)            [128, 1024, 12, 12]       [128, 1024, 12, 12]       --                        2,048                     262,144
│    │    └─ReLU (relu)                  [128, 1024, 12, 12]       [128, 1024, 12, 12]       --                        --                        --
│    │    └─Conv2d (conv2)               [128, 1024, 12, 12]       [128, 1024, 12, 12]       [3, 3]                    589,824                   10,871,635,968
│    │    └─BatchNorm2d (bn2)            [128, 1024, 12, 12]       [128, 1024, 12, 12]       --                        2,048                     262,144
│    │    └─ReLU (relu)                  [128, 1024, 12, 12]       [128, 1024, 12, 12]       --                        --                        --
├─AdaptiveAvgPool2d (avgpool)            [128, 1024, 12, 12]       [128, 1024, 1, 1]         --                        --                        --
├─Sequential (fc)                        [128, 1024]               [128, 10]                 --                        --                        --
│    └─View (0)                          [128, 1024]               [128, 1024, 1]            --                        --                        --
│    └─Conv1d (1)                        [128, 1024, 1]            [128, 160, 1]             [1]                       10,400                    1,331,200
│    └─View (2)                          [128, 160, 1]             [128, 160]                --                        --                        --
│    └─SplitMean (3)                     [128, 160]                [128, 10]                 --                        --                        --
=====================================================================================================================================================================
Total params: 2,822,432
Trainable params: 2,822,432
Non-trainable params: 0
Total mult-adds (Units.GIGABYTES): 163.53
=====================================================================================================================================================================
…
