=====================================================================================================================================================================
Layer (type (var_name))                  Input Shape               Output Shape              Kernel Shape              Param #                   Mult-Adds
=====================================================================================================================================================================
AutoEncoder (AutoEncoder)                [128, 3, 64, 64]          [128, 3, 64, 64]          --                        --                        --
├─Sequential (encoder)                   [128, 3, 64, 64]          [128, 8, 4, 4]            --                        --                        --
│    └─Conv2d (0)                        [128, 3, 64, 64]          [128, 64, 64, 64]         [3, 3]                    1,792                     939,524,096
│    └─BatchNorm2d (1)                   [128, 64, 64, 64]         [128, 64, 64, 64]         --                        128                       16,384
│    └─MaxPool2d (2)                     [128, 64, 64, 64]         [128, 64, 32, 32]         2                         --                        --
│    └─Conv2d (3)                        [128, 64, 32, 32]         [128, 128, 32, 32]        [3, 3]                    73,856                    9,680,453,632
│    └─BatchNorm2d (4)                   [128, 128, 32, 32]        [128, 128, 32, 32]        --                        256                       32,768
│    └─MaxPool2d (5)                     [128, 128, 32, 32]        [128, 128, 16, 16]        2                         --                        --
│    └─Conv2d (6)                        [128, 128, 16, 16]        [128, 256, 16, 16]        [3, 3]                    295,168                   9,672,065,024
│    └─BatchNorm2d (7)                   [128, 256, 16, 16]        [128, 256, 16, 16]        --                        512                       65,536
│    └─MaxPool2d (8)                     [128, 256, 16, 16]        [128, 256, 8, 8]          2                         --                        --
│    └─Conv2d (9)                        [128, 256, 8, 8]          [128, 256, 8, 8]          [3, 3]                    590,080                   4,833,935,360
│    └─BatchNorm2d (10)                  [128, 256, 8, 8]          [128, 256, 8, 8]          --                        512                       65,536
│    └─MaxPool2d (11)                    [128, 256, 8, 8]          [128, 256, 4, 4]          2                         --                        --
│    └─Conv2d (12)                       [128, 256, 4, 4]          [128, 8, 4, 4]            [1, 1]                    2,056                     4,210,688
├─Sequential (decoder)                   [128, 8, 4, 4]            [128, 3, 64, 64]          --                        --                        --
│    └─ConvTranspose2d (0)               [128, 8, 4, 4]            [128, 128, 8, 8]          [2, 2]                    4,224                     34,603,008
│    └─BatchNorm2d (1)                   [128, 128, 8, 8]          [128, 128, 8, 8]          --                        256                       32,768
│    └─ConvTranspose2d (2)               [128, 128, 8, 8]          [128, 256, 16, 16]        [2, 2]                    131,328                   4,303,355,904
│    └─BatchNorm2d (3)                   [128, 256, 16, 16]        [128, 256, 16, 16]        --                        512                       65,536
│    └─ConvTranspose2d (4)               [128, 256, 16, 16]        [128, 512, 32, 32]        [2, 2]                    524,800                   68,786,585,600
│    └─BatchNorm2d (5)                   [128, 512, 32, 32]        [128, 512, 32, 32]        --                        1,024                     131,072
│    └─ConvTranspose2d (6)               [128, 512, 32, 32]        [128, 512, 64, 64]        [2, 2]                    1,049,088                 550,024,249,344
│    └─BatchNorm2d (7)                   [128, 512, 64, 64]        [128, 512, 64, 64]        --                        1,024                     131,072
│    └─Conv2d (8)                        [128, 512, 64, 64]        [128, 3, 64, 64]          [1, 1]                    1,539                     806,879,232
=====================================================================================================================================================================
Total params: 2,678,155
Trainable params: 2,678,155
Non-trainable params: 0
Total mult-adds (Units.GIGABYTES): 649.09
=====================================================================================================================================================================
…
