=====================================================================================================================================================================
Layer (type (var_name))                  Input Shape               Output Shape              Kernel Shape              Param #                   Mult-Adds
=====================================================================================================================================================================
AutoEncoder (AutoEncoder)                [14, 3, 64, 64]           [14, 3, 64, 64]           --                        --                        --
├─Sequential (encoder)                   [14, 3, 64, 64]           [14, 8, 4, 4]             --                        --                        --
│    └─Conv2d (0)                        [14, 3, 64, 64]           [14, 64, 64, 64]          [3, 3]                    1,792                     102,760,448
│    └─BatchNorm2d (1)                   [14, 64, 64, 64]          [14, 64, 64, 64]          --                        128                       1,792
│    └─MaxPool2d (2)                     [14, 64, 64, 64]          [14, 64, 32, 32]          2                         --                        --
│    └─Conv2d (3)                        [14, 64, 32, 32]          [14, 128, 32, 32]         [3, 3]                    73,856                    1,058,799,616
│    └─BatchNorm2d (4)                   [14, 128, 32, 32]         [14, 128, 32, 32]         --                        256                       3,584
│    └─MaxPool2d (5)                     [14, 128, 32, 32]         [14, 128, 16, 16]         2                         --                        --
│    └─Conv2d (6)                        [14, 128, 16, 16]         [14, 256, 16, 16]         [3, 3]                    295,168                   1,057,882,112
│    └─BatchNorm2d (7)                   [14, 256, 16, 16]         [14, 256, 16, 16]         --                        512                       7,168
│    └─MaxPool2d (8)                     [14, 256, 16, 16]         [14, 256, 8, 8]           2                         --                        --
│    └─Conv2d (9)                        [14, 256, 8, 8]           [14, 256, 8, 8]           [3, 3]                    590,080                   528,711,680
│    └─BatchNorm2d (10)                  [14, 256, 8, 8]           [14, 256, 8, 8]           --                        512                       7,168
│    └─MaxPool2d (11)                    [14, 256, 8, 8]           [14, 256, 4, 4]           2                         --                        --
│    └─Conv2d (12)                       [14, 256, 4, 4]           [14, 8, 4, 4]             [1, 1]                    2,056                     460,544
├─Sequential (decoder)                   [14, 8, 4, 4]             [14, 3, 64, 64]           --                        --                        --
│    └─ConvTranspose2d (0)               [14, 8, 4, 4]             [14, 128, 8, 8]           [2, 2]                    4,224                     3,784,704
│    └─BatchNorm2d (1)                   [14, 128, 8, 8]           [14, 128, 8, 8]           --                        256                       3,584
│    └─ConvTranspose2d (2)               [14, 128, 8, 8]           [14, 256, 16, 16]         [2, 2]                    131,328                   470,679,552
│    └─BatchNorm2d (3)                   [14, 256, 16, 16]         [14, 256, 16, 16]         --                        512                       7,168
│    └─ConvTranspose2d (4)               [14, 256, 16, 16]         [14, 512, 32, 32]         [2, 2]                    524,800                   7,523,532,800
│    └─BatchNorm2d (5)                   [14, 512, 32, 32]         [14, 512, 32, 32]         --                        1,024                     14,336
│    └─ConvTranspose2d (6)               [14, 512, 32, 32]         [14, 512, 64, 64]         [2, 2]                    1,049,088                 60,158,902,272
│    └─BatchNorm2d (7)                   [14, 512, 64, 64]         [14, 512, 64, 64]         --                        1,024                     14,336
│    └─Conv2d (8)                        [14, 512, 64, 64]         [14, 3, 64, 64]           [1, 1]                    1,539                     88,252,416
=====================================================================================================================================================================
Total params: 2,678,155
Trainable params: 2,678,155
Non-trainable params: 0
Total mult-adds (Units.GIGABYTES): 70.99
=====================================================================================================================================================================
…
