=====================================================================================================================================================================
Layer (type (var_name))                  Input Shape               Output Shape              Kernel Shape              Param #                   Mult-Adds
=====================================================================================================================================================================
AutoEncoder (AutoEncoder)                [128, 3, 96, 96]          [128, 3, 96, 96]          --                        --                        --
├─Sequential (encoder)                   [128, 3, 96, 96]          [128, 8, 6, 6]            --                        --                        --
│    └─Conv2d (0)                        [128, 3, 96, 96]          [128, 64, 96, 96]         [3, 3]                    1,792                     2,113,929,216
│    └─BatchNorm2d (1)                   [128, 64, 96, 96]         [128, 64, 96, 96]         --                        128                       16,384
│    └─MaxPool2d (2)                     [128, 64, 96, 96]         [128, 64, 48, 48]         2                         --                        --
│    └─Conv2d (3)                        [128, 64, 48, 48]         [128, 128, 48, 48]        [3, 3]                    73,856                    21,781,020,672
│    └─BatchNorm2d (4)                   [128, 128, 48, 48]        [128, 128, 48, 48]        --                        256                       32,768
│    └─MaxPool2d (5)                     [128, 128, 48, 48]        [128, 128, 24, 24]        2                         --                        --
│    └─Conv2d (6)                        [128, 128, 24, 24]        [128, 256, 24, 24]        [3, 3]                    295,168                   21,762,146,304
│    └─BatchNorm2d (7)                   [128, 256, 24, 24]        [128, 256, 24, 24]        --                        512                       65,536
│    └─MaxPool2d (8)                     [128, 256, 24, 24]        [128, 256, 12, 12]        2                         --                        --
│    └─Conv2d (9)                        [128, 256, 12, 12]        [128, 256, 12, 12]        [3, 3]                    590,080                   10,876,354,560
│    └─BatchNorm2d (10)                  [128, 256, 12, 12]        [128, 256, 12, 12]        --                        512                       65,536
│    └─MaxPool2d (11)                    [128, 256, 12, 12]        [128, 256, 6, 6]          2                         --                        --
│    └─Conv2d (12)                       [128, 256, 6, 6]          [128, 8, 6, 6]            [1, 1]                    2,056                     9,474,048
├─Sequential (decoder)                   [128, 8, 6, 6]            [128, 3, 96, 96]          --                        --                        --
│    └─ConvTranspose2d (0)               [128, 8, 6, 6]            [128, 128, 12, 12]        [2, 2]                    4,224                     77,856,768
│    └─BatchNorm2d (1)                   [128, 128, 12, 12]        [128, 128, 12, 12]        --                        256                       32,768
│    └─ConvTranspose2d (2)               [128, 128, 12, 12]        [128, 256, 24, 24]        [2, 2]                    131,328                   9,682,550,784
│    └─BatchNorm2d (3)                   [128, 256, 24, 24]        [128, 256, 24, 24]        --                        512                       65,536
│    └─ConvTranspose2d (4)               [128, 256, 24, 24]        [128, 512, 48, 48]        [2, 2]                    524,800                   154,769,817,600
│    └─BatchNorm2d (5)                   [128, 512, 48, 48]        [128, 512, 48, 48]        --                        1,024                     131,072
│    └─ConvTranspose2d (6)               [128, 512, 48, 48]        [128, 512, 96, 96]        [2, 2]                    1,049,088                 1,237,554,561,024
│    └─BatchNorm2d (7)                   [128, 512, 96, 96]        [128, 512, 96, 96]        --                        1,024                     131,072
│    └─Conv2d (8)                        [128, 512, 96, 96]        [128, 3, 96, 96]          [1, 1]                    1,539                     1,815,478,272
=====================================================================================================================================================================
Total params: 2,678,155
Trainable params: 2,678,155
Non-trainable params: 0
Total mult-adds (Units.TERABYTES): 1.46
=====================================================================================================================================================================
…
