…
=======================================================================================================================================================
Layer (type (var_name))                                      Input Shape               Output Shape              Kernel Shape              Param #                   Mult-Adds
=========================================================================================================================================================================================
EfficientNet (EfficientNet)                                  [128, 3, 32, 32]          [128, 7]                  --                        --                        --
├─Sequential (features)                                      [128, 3, 32, 32]          [128, 1280, 1, 1]         --                        --                        --
│    └─Conv2dNormActivation (0)                              [128, 3, 32, 32]          [128, 24, 16, 16]         --                        --                        --
│    │    └─Conv2d (0)                                       [128, 3, 32, 32]          [128, 24, 16, 16]         [3, 3]                    648                       21,233,664
│    │    └─BatchNorm2d (1)                                  [128, 24, 16, 16]         [128, 24, 16, 16]         --                        48                        6,144
│    │    └─SiLU (2)                                         [128, 24, 16, 16]         [128, 24, 16, 16]         --                        --                        --
│    └─Sequential (1)                                        [128, 24, 16, 16]         [128, 24, 16, 16]         --                        --                        --
│    │    └─FusedMBConv (0)                                  [128, 24, 16, 16]         [128, 24, 16, 16]         --                        5,232                     169,875,456
│    │    └─FusedMBConv (1)                                  [128, 24, 16, 16]         [128, 24, 16, 16]         --                        5,232                     169,875,456
│    └─Sequential (2)                                        [128, 24, 16, 16]         [128, 48, 8, 8]           --                        --                        --
│    │    └─FusedMBConv (0)                                  [128, 24, 16, 16]         [128, 48, 8, 8]           --                        25,632                    207,654,912
│    │    └─FusedMBConv (1)                                  [128, 48, 8, 8]           [128, 48, 8, 8]           --                        92,640                    755,036,160
│    │    └─FusedMBConv (2)                                  [128, 48, 8, 8]           [128, 48, 8, 8]           --                        92,640                    755,036,160
│    │    └─FusedMBConv (3)                                  [128, 48, 8, 8]           [128, 48, 8, 8]           --                        92,640                    755,036,160
│    └─Sequential (3)                                        [128, 48, 8, 8]           [128, 64, 4, 4]           --                        --                        --
│    │    └─FusedMBConv (0)                                  [128, 48, 8, 8]           [128, 64, 4, 4]           --                        95,744                    195,100,672
│    │    └─FusedMBConv (1)                                  [128, 64, 4, 4]           [128, 64, 4, 4]           --                        164,480                   335,626,240
│    │    └─FusedMBConv (2)                                  [128, 64, 4, 4]           [128, 64, 4, 4]           --                        164,480                   335,626,240
│    │    └─FusedMBConv (3)                                  [128, 64, 4, 4]           [128, 64, 4, 4]           --                        164,480                   335,626,240
│    └─Sequential (4)                                        [128, 64, 4, 4]           [128, 128, 2, 2]          --                        --                        --
│    │    └─MBConv (0)                                       [128, 64, 4, 4]           [128, 128, 2, 2]          --                        61,200                    52,758,528
│    │    └─MBConv (1)                                       [128, 128, 2, 2]          [128, 128, 2, 2]          --                        171,296                   74,027,008
│    │    └─MBConv (2)                                       [128, 128, 2, 2]          [128, 128, 2, 2]          --                        171,296                   74,027,008
│    │    └─MBConv (3)                                       [128, 128, 2, 2]          [128, 128, 2, 2]          --                        171,296                   74,027,008
│    │    └─MBConv (4)                                       [128, 128, 2, 2]          [128, 128, 2, 2]          --                        171,296                   74,027,008
│    │    └─MBConv (5)                                       [128, 128, 2, 2]          [128, 128, 2, 2]          --                        171,296                   74,027,008
│    └─Sequential (5)                                        [128, 128, 2, 2]          [128, 160, 2, 2]          --                        --                        --
│    │    └─MBConv (0)                                       [128, 128, 2, 2]          [128, 160, 2, 2]          --                        281,440                   123,613,184
│    │    └─MBConv (1)                                       [128, 160, 2, 2]          [128, 160, 2, 2]          --                        397,800                   172,200,960
│    │    └─MBConv (2)                                       [128, 160, 2, 2]          [128, 160, 2, 2]          --                        397,800                   172,200,960
│    │    └─MBConv (3)                                       [128, 160, 2, 2]          [128, 160, 2, 2]          --                        397,800                   172,200,960
│    │    └─MBConv (4)                                       [128, 160, 2, 2]          [128, 160, 2, 2]          --                        397,800                   172,200,960
│    │    └─MBConv (5)                                       [128, 160, 2, 2]          [128, 160, 2, 2]          --                        397,800                   172,200,960
│    │    └─MBConv (6)                                       [128, 160, 2, 2]          [128, 160, 2, 2]          --                        397,800                   172,200,960
│    │    └─MBConv (7)                                       [128, 160, 2, 2]          [128, 160, 2, 2]          --                        397,800                   172,200,960
│    │    └─MBConv (8)                                       [128, 160, 2, 2]          [128, 160, 2, 2]          --                        397,800                   172,200,960
│    └─Sequential (6)                                        [128, 160, 2, 2]          [128, 256, 1, 1]          --                        --                        --
│    │    └─MBConv (0)                                       [128, 160, 2, 2]          [128, 256, 1, 1]          --                        490,152                   121,721,856
│    │    └─MBConv (1)                                       [128, 256, 1, 1]          [128, 256, 1, 1]          --                        1,005,120                 128,655,360
│    │    └─MBConv (2)                                       [128, 256, 1, 1]          [128, 256, 1, 1]          --                        1,005,120                 128,655,360
│    │    └─MBConv (3)                                       [128, 256, 1, 1]          [128, 256, 1, 1]          --                        1,005,120                 128,655,360
│    │    └─MBConv (4)                                       [128, 256, 1, 1]          [128, 256, 1, 1]          --                        1,005,120                 128,655,360
│    │    └─MBConv (5)                                       [128, 256, 1, 1]          [128, 256, 1, 1]          --                        1,005,120                 128,655,360
│    │    └─MBConv (6)                                       [128, 256, 1, 1]          [128, 256, 1, 1]          --                        1,005,120                 128,655,360
│    │    └─MBConv (7)                                       [128, 256, 1, 1]          [128, 256, 1, 1]          --                        1,005,120                 128,655,360
│    │    └─MBConv (8)                                       [128, 256, 1, 1]          [128, 256, 1, 1]          --                        1,005,120                 128,655,360
│    │    └─MBConv (9)                                       [128, 256, 1, 1]          [128, 256, 1, 1]          --                        1,005,120                 128,655,360
│    │    └─MBConv (10)                                      [128, 256, 1, 1]          [128, 256, 1, 1]          --                        1,005,120                 128,655,360
│    │    └─MBConv (11)                                      [128, 256, 1, 1]          [128, 256, 1, 1]          --                        1,005,120                 128,655,360
│    │    └─MBConv (12)                                      [128, 256, 1, 1]          [128, 256, 1, 1]          --                        1,005,120                 128,655,360
│    │    └─MBConv (13)                                      [128, 256, 1, 1]          [128, 256, 1, 1]          --                        1,005,120                 128,655,360
│    │    └─MBConv (14)                                      [128, 256, 1, 1]          [128, 256, 1, 1]          --                        1,005,120                 128,655,360
│    └─Conv2dNormActivation (7)                              [128, 256, 1, 1]          [128, 1280, 1, 1]         --                        --                        --
│    │    └─Conv2d (0)                                       [128, 256, 1, 1]          [128, 1280, 1, 1]         [1, 1]                    327,680                   41,943,040
│    │    └─BatchNorm2d (1)                                  [128, 1280, 1, 1]         [128, 1280, 1, 1]         --                        2,560                     327,680
│    │    └─SiLU (2)                                         [128, 1280, 1, 1]         [128, 1280, 1, 1]         --                        --                        --
├─AdaptiveAvgPool2d (avgpool)                                [128, 1280, 1, 1]         [128, 1280, 1, 1]         --                        --                        --
├─Sequential (classifier)                                    [128, 1280]               [128, 7]                  --                        --                        --
│    └─Dropout (0)                                           [128, 1280]               [128, 1280]               --                        --                        --
│    └─Linear (1)                                            [128, 1280]               [128, 7]                  --                        8,967                     1,147,776
=========================================================================================================================================================================================
Total params: 20,186,455
Trainable params: 20,186,455
Non-trainable params: 0
Total mult-adds (Units.GIGABYTES): 7.93
=========================================================================================================================================================================================
…
