=====================================================================================================================================================================
Layer (type (var_name))                  Input Shape               Output Shape              Kernel Shape              Param #                   Mult-Adds
=====================================================================================================================================================================
AutoEncoder (AutoEncoder)                [25, 3, 64, 64]           [25, 3, 64, 64]           --                        --                        --
├─Sequential (encoder)                   [25, 3, 64, 64]           [25, 8, 4, 4]             --                        --                        --
│    └─Conv2d (0)                        [25, 3, 64, 64]           [25, 64, 64, 64]          [3, 3]                    1,792                     183,500,800
│    └─BatchNorm2d (1)                   [25, 64, 64, 64]          [25, 64, 64, 64]          --                        128                       3,200
│    └─MaxPool2d (2)                     [25, 64, 64, 64]          [25, 64, 32, 32]          2                         --                        --
│    └─Conv2d (3)                        [25, 64, 32, 32]          [25, 128, 32, 32]         [3, 3]                    73,856                    1,890,713,600
│    └─BatchNorm2d (4)                   [25, 128, 32, 32]         [25, 128, 32, 32]         --                        256                       6,400
│    └─MaxPool2d (5)                     [25, 128, 32, 32]         [25, 128, 16, 16]         2                         --                        --
│    └─Conv2d (6)                        [25, 128, 16, 16]         [25, 256, 16, 16]         [3, 3]                    295,168                   1,889,075,200
│    └─BatchNorm2d (7)                   [25, 256, 16, 16]         [25, 256, 16, 16]         --                        512                       12,800
│    └─MaxPool2d (8)                     [25, 256, 16, 16]         [25, 256, 8, 8]           2                         --                        --
│    └─Conv2d (9)                        [25, 256, 8, 8]           [25, 256, 8, 8]           [3, 3]                    590,080                   944,128,000
│    └─BatchNorm2d (10)                  [25, 256, 8, 8]           [25, 256, 8, 8]           --                        512                       12,800
│    └─MaxPool2d (11)                    [25, 256, 8, 8]           [25, 256, 4, 4]           2                         --                        --
│    └─Conv2d (12)                       [25, 256, 4, 4]           [25, 8, 4, 4]             [1, 1]                    2,056                     822,400
├─Sequential (decoder)                   [25, 8, 4, 4]             [25, 3, 64, 64]           --                        --                        --
│    └─ConvTranspose2d (0)               [25, 8, 4, 4]             [25, 128, 8, 8]           [2, 2]                    4,224                     6,758,400
│    └─BatchNorm2d (1)                   [25, 128, 8, 8]           [25, 128, 8, 8]           --                        256                       6,400
│    └─ConvTranspose2d (2)               [25, 128, 8, 8]           [25, 256, 16, 16]         [2, 2]                    131,328                   840,499,200
│    └─BatchNorm2d (3)                   [25, 256, 16, 16]         [25, 256, 16, 16]         --                        512                       12,800
│    └─ConvTranspose2d (4)               [25, 256, 16, 16]         [25, 512, 32, 32]         [2, 2]                    524,800                   13,434,880,000
│    └─BatchNorm2d (5)                   [25, 512, 32, 32]         [25, 512, 32, 32]         --                        1,024                     25,600
│    └─ConvTranspose2d (6)               [25, 512, 32, 32]         [25, 512, 64, 64]         [2, 2]                    1,049,088                 107,426,611,200
│    └─BatchNorm2d (7)                   [25, 512, 64, 64]         [25, 512, 64, 64]         --                        1,024                     25,600
│    └─Conv2d (8)                        [25, 512, 64, 64]         [25, 3, 64, 64]           [1, 1]                    1,539                     157,593,600
=====================================================================================================================================================================
Total params: 2,678,155
Trainable params: 2,678,155
Non-trainable params: 0
Total mult-adds (Units.GIGABYTES): 126.77
=====================================================================================================================================================================
…
