=====================================================================================================================================================================
Layer (type (var_name))                  Input Shape               Output Shape              Kernel Shape              Param #                   Mult-Adds
=====================================================================================================================================================================
ResNet (ResNet)                          [124, 3, 32, 32]          [124, 10]                 --                        --                        --
├─Sequential (conv1)                     [124, 3, 32, 32]          [124, 32, 32, 32]         --                        --                        --
│    └─CopyConcat (0)                    [124, 3, 32, 32]          [124, 3, 32, 32]          --                        --                        --
│    └─Conv2d (1)                        [124, 3, 32, 32]          [124, 32, 32, 32]         [3, 3]                    864                       109,707,264
├─BatchNorm2d (bn1)                      [124, 32, 32, 32]         [124, 32, 32, 32]         --                        64                        7,936
├─ReLU (relu)                            [124, 32, 32, 32]         [124, 32, 32, 32]         --                        --                        --
├─Sequential (layer1)                    [124, 32, 32, 32]         [124, 32, 32, 32]         --                        --                        --
│    └─BasicBlock (0)                    [124, 32, 32, 32]         [124, 32, 32, 32]         --                        --                        --
│    │    └─Conv2d (conv1)               [124, 32, 32, 32]         [124, 32, 32, 32]         [3, 3]                    9,216                     1,170,210,816
│    │    └─BatchNorm2d (bn1)            [124, 32, 32, 32]         [124, 32, 32, 32]         --                        64                        7,936
│    │    └─ReLU (relu)                  [124, 32, 32, 32]         [124, 32, 32, 32]         --                        --                        --
│    │    └─Conv2d (conv2)               [124, 32, 32, 32]         [124, 32, 32, 32]         [3, 3]                    9,216                     1,170,210,816
│    │    └─BatchNorm2d (bn2)            [124, 32, 32, 32]         [124, 32, 32, 32]         --                        64                        7,936
│    │    └─ReLU (relu)                  [124, 32, 32, 32]         [124, 32, 32, 32]         --                        --                        --
│    └─BasicBlock (1)                    [124, 32, 32, 32]         [124, 32, 32, 32]         --                        --                        --
│    │    └─Conv2d (conv1)               [124, 32, 32, 32]         [124, 32, 32, 32]         [3, 3]                    9,216                     1,170,210,816
│    │    └─BatchNorm2d (bn1)            [124, 32, 32, 32]         [124, 32, 32, 32]         --                        64                        7,936
│    │    └─ReLU (relu)                  [124, 32, 32, 32]         [124, 32, 32, 32]         --                        --                        --
│    │    └─Conv2d (conv2)               [124, 32, 32, 32]         [124, 32, 32, 32]         [3, 3]                    9,216                     1,170,210,816
│    │    └─BatchNorm2d (bn2)            [124, 32, 32, 32]         [124, 32, 32, 32]         --                        64                        7,936
│    │    └─ReLU (relu)                  [124, 32, 32, 32]         [124, 32, 32, 32]         --                        --                        --
├─Sequential (layer2)                    [124, 32, 32, 32]         [124, 64, 16, 16]         --                        --                        --
│    └─BasicBlock (0)                    [124, 32, 32, 32]         [124, 64, 16, 16]         --                        --                        --
│    │    └─Conv2d (conv1)               [124, 32, 32, 32]         [124, 64, 16, 16]         [3, 3]                    18,432                    585,105,408
│    │    └─BatchNorm2d (bn1)            [124, 64, 16, 16]         [124, 64, 16, 16]         --                        128                       15,872
│    │    └─ReLU (relu)                  [124, 64, 16, 16]         [124, 64, 16, 16]         --                        --                        --
│    │    └─Conv2d (conv2)               [124, 64, 16, 16]         [124, 64, 16, 16]         [3, 3]                    36,864                    1,170,210,816
│    │    └─BatchNorm2d (bn2)            [124, 64, 16, 16]         [124, 64, 16, 16]         --                        128                       15,872
│    │    └─Sequential (downsample)      [124, 32, 32, 32]         [124, 64, 16, 16]         --                        2,176                     65,027,584
│    │    └─ReLU (relu)                  [124, 64, 16, 16]         [124, 64, 16, 16]         --                        --                        --
│    └─BasicBlock (1)                    [124, 64, 16, 16]         [124, 64, 16, 16]         --                        --                        --
│    │    └─Conv2d (conv1)               [124, 64, 16, 16]         [124, 64, 16, 16]         [3, 3]                    36,864                    1,170,210,816
│    │    └─BatchNorm2d (bn1)            [124, 64, 16, 16]         [124, 64, 16, 16]         --                        128                       15,872
│    │    └─ReLU (relu)                  [124, 64, 16, 16]         [124, 64, 16, 16]         --                        --                        --
│    │    └─Conv2d (conv2)               [124, 64, 16, 16]         [124, 64, 16, 16]         [3, 3]                    36,864                    1,170,210,816
│    │    └─BatchNorm2d (bn2)            [124, 64, 16, 16]         [124, 64, 16, 16]         --                        128                       15,872
│    │    └─ReLU (relu)                  [124, 64, 16, 16]         [124, 64, 16, 16]         --                        --                        --
├─Sequential (layer3)                    [124, 64, 16, 16]         [124, 128, 8, 8]          --                        --                        --
│    └─BasicBlock (0)                    [124, 64, 16, 16]         [124, 128, 8, 8]          --                        --                        --
│    │    └─Conv2d (conv1)               [124, 64, 16, 16]         [124, 128, 8, 8]          [3, 3]                    73,728                    585,105,408
│    │    └─BatchNorm2d (bn1)            [124, 128, 8, 8]          [124, 128, 8, 8]          --                        256                       31,744
│    │    └─ReLU (relu)                  [124, 128, 8, 8]          [124, 128, 8, 8]          --                        --                        --
│    │    └─Conv2d (conv2)               [124, 128, 8, 8]          [124, 128, 8, 8]          [3, 3]                    147,456                   1,170,210,816
│    │    └─BatchNorm2d (bn2)            [124, 128, 8, 8]          [124, 128, 8, 8]          --                        256                       31,744
│    │    └─Sequential (downsample)      [124, 64, 16, 16]         [124, 128, 8, 8]          --                        8,448                     65,043,456
│    │    └─ReLU (relu)                  [124, 128, 8, 8]          [124, 128, 8, 8]          --                        --                        --
│    └─BasicBlock (1)                    [124, 128, 8, 8]          [124, 128, 8, 8]          --                        --                        --
│    │    └─Conv2d (conv1)               [124, 128, 8, 8]          [124, 128, 8, 8]          [3, 3]                    147,456                   1,170,210,816
│    │    └─BatchNorm2d (bn1)            [124, 128, 8, 8]          [124, 128, 8, 8]          --                        256                       31,744
│    │    └─ReLU (relu)                  [124, 128, 8, 8]          [124, 128, 8, 8]          --                        --                        --
│    │    └─Conv2d (conv2)               [124, 128, 8, 8]          [124, 128, 8, 8]          [3, 3]                    147,456                   1,170,210,816
│    │    └─BatchNorm2d (bn2)            [124, 128, 8, 8]          [124, 128, 8, 8]          --                        256                       31,744
│    │    └─ReLU (relu)                  [124, 128, 8, 8]          [124, 128, 8, 8]          --                        --                        --
├─Sequential (layer4)                    [124, 128, 8, 8]          [124, 256, 4, 4]          --                        --                        --
│    └─BasicBlock (0)                    [124, 128, 8, 8]          [124, 256, 4, 4]          --                        --                        --
│    │    └─Conv2d (conv1)               [124, 128, 8, 8]          [124, 256, 4, 4]          [3, 3]                    294,912                   585,105,408
│    │    └─BatchNorm2d (bn1)            [124, 256, 4, 4]          [124, 256, 4, 4]          --                        512                       63,488
│    │    └─ReLU (relu)                  [124, 256, 4, 4]          [124, 256, 4, 4]          --                        --                        --
│    │    └─Conv2d (conv2)               [124, 256, 4, 4]          [124, 256, 4, 4]          [3, 3]                    589,824                   1,170,210,816
│    │    └─BatchNorm2d (bn2)            [124, 256, 4, 4]          [124, 256, 4, 4]          --                        512                       63,488
│    │    └─Sequential (downsample)      [124, 128, 8, 8]          [124, 256, 4, 4]          --                        33,280                    65,075,200
│    │    └─ReLU (relu)                  [124, 256, 4, 4]          [124, 256, 4, 4]          --                        --                        --
│    └─BasicBlock (1)                    [124, 256, 4, 4]          [124, 256, 4, 4]          --                        --                        --
│    │    └─Conv2d (conv1)               [124, 256, 4, 4]          [124, 256, 4, 4]          [3, 3]                    589,824                   1,170,210,816
│    │    └─BatchNorm2d (bn1)            [124, 256, 4, 4]          [124, 256, 4, 4]          --                        512                       63,488
│    │    └─ReLU (relu)                  [124, 256, 4, 4]          [124, 256, 4, 4]          --                        --                        --
│    │    └─Conv2d (conv2)               [124, 256, 4, 4]          [124, 256, 4, 4]          [3, 3]                    589,824                   1,170,210,816
│    │    └─BatchNorm2d (bn2)            [124, 256, 4, 4]          [124, 256, 4, 4]          --                        512                       63,488
│    │    └─ReLU (relu)                  [124, 256, 4, 4]          [124, 256, 4, 4]          --                        --                        --
├─AdaptiveAvgPool2d (avgpool)            [124, 256, 4, 4]          [124, 256, 1, 1]          --                        --                        --
├─Sequential (fc)                        [124, 256]                [124, 10]                 --                        --                        --
│    └─View (0)                          [124, 256]                [124, 256, 1]             --                        --                        --
│    └─Conv1d (1)                        [124, 256, 1]             [124, 10, 1]              [1]                       2,570                     318,680
│    └─View (2)                          [124, 10, 1]              [124, 10]                 --                        --                        --
│    └─SplitMerge (3)                    [124, 10]                 [124, 10]                 --                        --                        --
=====================================================================================================================================================================
Total params: 2,797,610
Trainable params: 2,797,610
Non-trainable params: 0
Total mult-adds (Units.GIGABYTES): 17.27
=====================================================================================================================================================================
…
